…
 max_pooling3d (MaxPooling3  (None, 127, 127, 63, 64   0         
 D)                          )                                   
                                                                 
 batch_normalization (Batch  (None, 127, 127, 63, 64   256       
 Normalization)              )                                   
                                                                 
 conv3d_1 (Conv3D)           (None, 125, 125, 61, 64   110656    
                             )                                   
                                                                 
 max_pooling3d_1 (MaxPoolin  (None, 62, 62, 30, 64)    0         
 g3D)                                                            
                                                                 
 batch_normalization_1 (Bat  (None, 62, 62, 30, 64)    256       
 chNormalization)                                                
                                                                 
 conv3d_2 (Conv3D)           (None, 60, 60, 28, 128)   221312    
                                                                 
 max_pooling3d_2 (MaxPoolin  (None, 30, 30, 14, 128)   0         
 g3D)                                                            
                                                                 
 batch_normalization_2 (Bat  (None, 30, 30, 14, 128)   512       
 chNormalization)                                                
                                                                 
 conv3d_3 (Conv3D)           (None, 28, 28, 12, 256)   884992    
                                                                 
 max_pooling3d_3 (MaxPoolin  (None, 14, 14, 6, 256)    0         
 g3D)                                                            
                                                                 
 batch_normalization_3 (Bat  (None, 14, 14, 6, 256)    1024      
 chNormalization)                                                
                                                                 
 global_average_pooling3d (  (None, 256)               0         
 GlobalAveragePooling3D)                                         
                                                                 
 dense (Dense)               (None, 512)               131584    
                                                                 
 dropout (Dropout)           (None, 512)               0         
                                                                 
 dense_1 (Dense)             (None, 1)                 513       
                                                                 
=================================================================
Total params: 1352897 (5.16 MB)
Trainable params: 1351873 (5.16 MB)
Non-trainable params: 1024 (4.00 KB)
_________________________________________________________________
  1/181 [..............................] - ETA: 7:27
…
